Assets/Config/results/Match3AgentBot/Match3Agent/checkpoint.pt (torch, 75929 bytes, 33 tensors)

discrete_act_size_vector f4 [1, 2]
000000 00 00 34 43 00 00 80 3f
       180.0 1.0

network_body.observation_encoder.processors.0.normalizer.running_mean f4 [400]
000000 e6 9f 54 3f 00 00 00 00 b1 4b 23 3c ca e4 1f 3e
       0.83056486 0.0 0.009966777 0.1561462
000010 a0 d4 5e 3f b1 4b 23 3c b7 23 ee 3d 00 00 00 00
       0.8704319 0.009966777 0.11627906 0.0
000020 e6 55 67 3d 00 00 00 00 00 00 00 00 e8 b0 70 3f
       0.056478404 0.0 0.0 0.9401994
000030 13 77 44 3f b2 4b 23 3e b1 4b 23 3c 8a f1 74 3d
       0.7674419 0.15946844 0.009966777 0.059800662
000040 43 ba 59 3c 89 96 6b 3f 9f 1e 4c 3d 43 ba 59 3c
       0.013289037 0.92026573 0.04983389 0.013289037
000050 43 ba 59 3b 00 00 00 00 b8 23 6e 3f 96 46 81 3d
       0.0033222593 0.0 0.9302325 0.06312291
000060 43 ba 59 3b fe ee 63 3f 6f ec d2 3d 00 00 00 00
       0.0033222593 0.8903655 0.102990024 0.0
000070 00 00 00 00 e7 55 67 3f 43 ba d9 3c 68 14 88 3d
       0.0 0.9036545 0.026578074 0.06644517
000080 e6 fa 5d 3f 43 ba d9 3b fa 82 be 3c 9e 1e cc 3d
       0.86710966 0.0066445186 0.023255814 0.09966777
000090 00 00 00 00 00 00 00 00 e9 0b 7a 3f b1 4b a3 3c
       0.0 0.0 0.97674423 0.019933553
0000a0 ca 50 c5 3d 43 ba d9 3c 56 e7 30 3d e6 9f 54 3f
       0.0963455 0.026578074 0.04318937 0.83056486
0000b0 00 00 00 00 b1 4b 23 3c fd 93 5a 3f 69 14 08 3e
       0.0 0.009966777 0.8538206 0.13289036
0000c0 87 2a 46 3f 68 14 88 3c 6f ec 52 3e 00 00 00 00
       0.7740864 0.016611293 0.20598005 0.0
0000d0 b0 4b 23 3c 42 5f 50 3f 00 00 00 00 55 e7 30 3e
       0.009966776 0.8139535 0.0 0.17275746
0000e0 45 cb 75 3f 43 ba 59 3b 6a 14 88 3c 69 14 88 3c
       0.9601329 0.0033222593 0.016611297 0.016611295
0000f0 0d b0 15 3d 0e b0 95 3d 27 b5 b7 3d 9d 1e 4c 3f
       0.03654485 0.073089704 0.08970099 0.7973421
000100 9b b2 26 3e 58 9d 43 3f 9f 1e 4c 3d b1 4b a3 3c
       0.1627907 0.7641196 0.04983389 0.019933553
000110 43 ba 59 3c 45 ba d9 3c 12 88 e0 3d 88 e0 58 3f
       0.013289037 0.026578078 0.10963453 0.8471761
000120 f6 16 99 3e b2 4b a3 3c 00 00 00 00 6c 80 2d 3f
       0.2990033 0.019933555 0.0 0.6777408
000130 d0 61 61 3f 69 14 88 3c 00 00 00 00 9e 1e cc 3d
       0.88039875 0.016611295 0.0 0.09966777
000140 70 a2 65 3f 43 ba 59 3c 96 46 81 3d fa 82 be 3c
       0.89700985 0.013289037 0.06312291 0.023255814
000150 00 00 00 00 51 7b 0b 3e 69 14 88 3c ce 06 58 3f
       0.0 0.1362126 0.016611295 0.84385383
000160 cc 50 45 3e b1 4b 23 3c b6 b7 48 3f b1 4b 23 3c
       0.19269103 0.009966777 0.7840532 0.009966777
000170 b1 4b a3 3c e0 7d 1c 3e 8c f1 f4 3c e4 44 4b 3f
       0.019933553 0.15282393 0.029900335 0.79401994
000180 9f d4 5e 3f 0d b0 15 3d 43 ba 59 3c e1 7d 9c 3d
       0.87043184 0.03654485 0.013289037 0.07641197
000190 fa 82 be 3c 70 ec d2 3d 9f d4 5e 3f 00 00 00 00
       0.023255814 0.10299003 0.87043184 0.0
0001a0 e2 8e 38 3f 14 88 e0 3d e6 55 e7 3d 43 ba 59 3d
       0.7209302 0.10963455 0.11295681 0.05315615
0001b0 44 ba 59 3e e0 7d 1c 3e e9 55 e7 3d 81 ad 04 3f
       0.21262461 0.15282393 0.11295683 0.51827246
0001c0 52 20 02 3f 43 ba d9 3c 43 ba d9 3b 5c 09 e9 3e
       0.50830567 0.026578074 0.0066445186 0.45514953
0001d0 a0 79 55 3f b1 4b 23 3c 8c f1 f4 3c 5c bf fb 3d
       0.8338871 0.009966777 0.029900335 0.12292358
0001e0 40 a9 3d 3f 8a f1 f4 3d 9e 1e cc 3d 0e b0 15 3d
       0.7408638 0.119601324 0.09966777 0.036544852
0001f0 43 ba 59 3c ce bc 6a 3f 8c f1 f4 3c 0d b0 15 3d
       0.013289037 0.91694343 0.029900335 0.03654485
000200 55 31 1e 3f fa 82 be 3c b1 4b 23 3d 3d 98 a1 3e
       0.61794025 0.023255814 0.039867107 0.3156146
000210 e2 e9 41 3e 57 e7 30 3f 56 e7 30 3d 0e b0 95 3d
       0.18936875 0.69102997 0.04318937 0.073089704
000220 43 ba 59 3c b0 4b a3 3d 27 b5 b7 3d 42 5f 50 3f
       0.013289037 0.079734206 0.08970099 0.8139535
000230 97 46 81 3e 9b 0d 30 3f 69 14 88 3c b1 4b 23 3d
       0.25249168 0.6877076 0.016611295 0.039867107
000240 0e b0 95 3d 82 63 17 3f 51 7b 8b 3e 8c f1 74 3d
       0.073089704 0.5913621 0.2724252 0.05980067
000250 53 7b 0b 3f b8 23 ee 3d 3c e2 8e 3e e6 55 67 3d
       0.5448505 0.116279066 0.27906978 0.056478404
000260 df 7d 1c 3e af 95 90 3e f9 82 be 3c de c7 09 3f
       0.15282391 0.282392 0.023255812 0.538206
000270 80 ad 04 3e 43 ba d9 3b 96 46 81 3d 9d 1e 4c 3f
       0.1295681 0.0066445186 0.06312291 0.7973421
000280 0f b0 15 3d 0d fa 02 3f 2a 6b ca 3e 43 ba 59 3d
       0.036544856 0.511628 0.39534885 0.05315615
000290 fa 82 be 3c 12 77 44 3f e2 e9 41 3e 69 14 88 3c
       0.023255814 0.76744187 0.18936875 0.016611295
0002a0 c9 e4 9f 3e 44 ba d9 3c 57 e7 30 3d 99 57 1d 3f
       0.31229237 0.026578076 0.043189373 0.6146179
0002b0 10 0b 1f 3f 97 46 01 3e b1 4b 23 3d 5a 53 56 3e
       0.62126255 0.12624584 0.039867107 0.20930234
0002c0 56 e7 30 3d 29 10 41 3f fa 82 3e 3e 43 ba 59 3c
       0.04318937 0.75415283 0.18604651 0.013289037
0002d0 11 1c 3b 3f b8 23 ee 3d 69 14 88 3c 68 14 08 3e
       0.730897 0.116279066 0.016611295 0.13289034
0002e0 43 ba d9 3d 43 ba 59 3b 85 74 33 3f f9 82 3e 3e
       0.1063123 0.0033222593 0.7009967 0.1860465
0002f0 b1 4b a3 3c 97 46 81 3e c9 e4 1f 3f 9f 1e cc 3d
       0.019933553 0.25249168 0.62458473 0.09966778
000300 26 49 12 3f 84 63 97 3e 43 ba d9 3b 5c bf fb 3d
       0.57142866 0.29568112 0.0066445186 0.12292358
000310 3f 04 47 3f 43 ba 59 3c 51 7b 0b 3e 3c e2 8e 3d
       0.77740854 0.013289037 0.1362126 0.069767445
000320 82 ad 04 3e 8b f1 f4 3e 3c e2 8e 3e 14 88 e0 3d
       0.12956813 0.47840533 0.27906978 0.10963455
000330 e2 7d 1c 3e 55 e7 30 3d 27 5a 2e 3f 8c f1 f4 3d
       0.15282395 0.043189365 0.6810631 0.11960134
000340 3e 3d 18 3f 69 14 08 3e e3 55 e7 3d c9 e4 1f 3e
       0.5946845 0.13289036 0.112956785 0.15614618
000350 9f 1e cc 3d 83 19 2a 3e 83 19 2a 3e af 95 10 3f
       0.09966778 0.16611294 0.16611294 0.564784
000360 69 14 08 3d 9f 1e cc 3d 57 f8 4c 3f 97 46 81 3d
       0.03322259 0.09966778 0.80066437 0.06312292
000370 69 14 08 3e e4 e9 41 3e 8a f1 74 3d 9a 57 1d 3f
       0.13289036 0.18936878 0.059800662 0.61461794
000380 74 58 78 3e 54 e7 30 3d 12 1c 3b 3e b0 3a 07 3f
       0.24252492 0.04318936 0.18272427 0.52823925
000390 9e 1e 4c 3d 3e 98 21 3f c8 e4 1f 3e b3 4b 23 3e
       0.049833886 0.6312293 0.15614617 0.15946846
0003a0 25 49 92 3e f6 16 19 3e e6 55 e7 3d 72 a2 e5 3e
       0.2857143 0.14950165 0.11295681 0.44850498
0003b0 84 19 aa 3d 9f 1e 4c 3d cd f5 3b 3f 80 ad 04 3e
       0.08305648 0.04983389 0.7342194 0.1295681
0003c0 80 ad 04 3f 9c b2 26 3e 43 ba d9 3d 58 53 56 3e
       0.5182724 0.16279072 0.1063123 0.2093023
0003d0 c5 d3 03 3f b0 4b 23 3d 55 e7 b0 3d b2 01 b6 3e
       0.5149501 0.039867103 0.08637873 0.35548168
0003e0 e1 7d 1c 3e fa 82 3e 3e b7 23 6e 3e 44 ba d9 3e
       0.15282394 0.18604651 0.23255812 0.42524922
0003f0 96 46 01 3e c9 e4 1f 3e f3 60 06 3f e3 e9 41 3e
       0.12624583 0.15614618 0.5249168 0.18936877

network_body.observation_encoder.processors.0.normalizer.running_variance f4 [400]
000000 6b 6f 2d 42 00 00 80 3f 1d 16 7e 40 00 a5 22 42
       43.358807 1.0 3.9700997 40.661133
000010 91 c9 0b 42 1d 16 7e 40 1c 71 ff 41 00 00 80 3f
       34.946842 3.9700997 31.93023 1.0
000020 a6 51 88 41 00 00 80 3f 00 00 80 3f 82 63 8f 41
       17.039867 1.0 1.0 17.923588
000030 3c e2 5a 42 d1 61 25 42 1d 16 7e 40 82 63 8f 41
       54.720932 41.345524 3.9700997 17.923588
000040 8b 4c 9e 40 e9 b0 b8 41 35 0a 74 41 8b 4c 9e 40
       4.9468436 23.086382 15.252492 4.9468436
000050 23 93 ff 3f 00 00 80 3f 72 47 a4 41 c1 67 96 41
       1.9966778 1.0 20.534885 18.800661
000060 23 93 ff 3f 74 0e f3 41 5c 75 e6 41 00 00 80 3f
       1.9966778 30.382057 28.807304 1.0
000070 00 00 80 3f d9 a5 d9 41 18 99 0c 41 69 5e 9d 41
       1.0 27.20598 8.787376 19.671099
000080 d0 bc 0e 42 45 26 3f 40 6c ca fa 40 68 14 e0 41
       35.684387 2.9867108 7.8372097 28.009964
000090 00 00 80 3f 00 00 80 3f 6d ca fa 40 3a 2c dc 40
       1.0 1.0 7.83721 6.8803988
0000a0 d7 a5 d9 41 19 99 0c 41 42 04 57 41 6b 6f 2d 42
       27.205976 8.787377 13.4385395 43.358807
0000b0 00 00 80 3f 1d 16 7e 40 bc 45 1a 42 cf bc 0e 42
       1.0 3.9700997 38.5681 35.684383
0000c0 2f 8d 56 42 9b 57 bd 40 be ea 48 42 00 00 80 3f
       53.637875 5.916944 50.22924 1.0
0000d0 1d 16 7e 40 5b 53 3a 42 00 00 80 3f 03 11 30 42
       3.9700997 46.5814 1.0 44.016613
0000e0 74 58 48 41 23 93 ff 3f 9a 57 bd 40 99 57 bd 40
       12.521595 1.9966778 5.9169436 5.916943
0000f0 6d 91 39 41 de 22 ab 41 e4 9f cc 41 2f 8d 46 42
       11.598004 21.392025 25.578072 49.637875
000100 d3 17 28 42 8a 02 5d 42 35 0a 74 41 3b 2c dc 40
       42.023266 55.25248 15.252492 6.880399
000110 8c 4c 9e 40 19 99 0c 41 75 0e f3 41 64 e1 1f 42
       4.946844 8.787377 30.38206 39.970108
000120 ee 2d 80 42 3a 2c dc 40 00 00 80 3f 53 7b 85 42
       64.08971 6.8803988 1.0 66.74087
000130 04 c7 02 42 9a 57 bd 40 00 00 80 3f 69 14 e0 41
       32.69435 5.9169436 1.0 28.009966
000140 5f 75 e6 41 8b 4c 9e 40 c2 67 96 41 6d ca fa 40
       28.80731 4.9468436 18.800663 7.83721
000150 00 00 80 3f 3f a9 11 42 9a 57 bd 40 ff a4 22 42
       1.0 36.41528 5.9169436 40.66113
000160 b1 4b 3f 42 1d 16 7e 40 94 da 4f 42 1e 16 7e 40
       47.823917 3.9700997 51.963455 3.9701
000170 39 2c dc 40 63 e1 1f 42 c2 b1 1b 41 bd ea 48 42
       6.8803983 39.970104 9.730898 50.229237
000180 92 c9 0b 42 6d 91 39 41 8b 4c 9e 40 b1 f0 b1 41
       34.946846 11.598004 4.9468436 22.242525
000190 6c ca fa 40 5b 75 e6 41 91 c9 0b 42 00 00 80 3f
       7.8372097 28.807302 34.946842 1.0
0001a0 85 3b 76 42 75 0e f3 41 96 46 f9 41 2d 32 81 41
       61.558125 30.38206 31.159466 16.1495
0001b0 72 91 4d 42 62 e1 1f 42 96 46 f9 41 8c 4c 98 42
       51.392036 39.9701 31.159466 76.149506
0001c0 5e 75 98 42 19 99 0c 41 45 26 3f 40 fe 49 97 42
       76.22923 8.787377 2.9867108 75.644516
0001d0 04 c7 2a 42 1d 16 7e 40 c3 b1 1b 41 ac ce 05 42
       42.69435 3.9700997 9.730899 33.451828
0001e0 46 26 6b 42 05 c7 02 42 69 14 e0 41 70 91 39 41
       58.787376 32.694355 28.009966 11.598007
0001f0 8c 4c 9e 40 80 63 bf 41 c1 b1 1b 41 6d 91 39 41
       4.946844 23.923584 9.730897 11.598004
000200 53 20 90 42 6a ca fa 40 72 58 48 41 81 08 84 42
       72.06313 7.8372087 12.521593 66.01661
000210 ee d2 3c 42 13 88 82 42 40 04 57 41 df 22 ab 41
       47.205986 65.26577 13.438538 21.392027
000220 8b 4c 9e 40 e8 b0 b8 41 e4 9f cc 41 5b 53 3a 42
       4.9468436 23.08638 25.578072 46.5814
000230 16 3e 67 42 fe 49 83 42 98 57 bd 40 73 58 48 41
       57.81063 65.644516 5.9169426 12.521594
000240 df 22 ab 41 9f 79 93 42 fe a4 72 42 81 63 8f 41
       21.392027 73.73754 60.661125 17.923586
000250 ff 49 97 42 21 71 ff 41 88 3b 76 42 a7 51 88 41
       75.64452 31.930239 61.558136 17.03987
000260 64 e1 1f 42 9a fc 77 42 6e ca fa 40 09 9f 97 42
       39.970108 61.99668 7.8372107 75.810616
000270 92 c9 0b 42 45 26 3f 40 c2 67 96 41 2e 8d 46 42
       34.946846 2.9867108 18.800663 49.63787
000280 6f 91 39 41 2b 6b 98 42 2e e8 91 42 2e 32 81 41
       11.598006 76.20931 72.953476 16.149502
000290 6c ca fa 40 3c e2 5a 42 ee d2 3c 42 99 57 bd 40
       7.8372097 54.720932 47.205986 5.916943
0002a0 fe 49 83 42 18 99 0c 41 41 04 57 41 63 97 90 42
       65.644516 8.787376 13.438539 72.29568
0002b0 d8 a5 8f 42 85 cf 08 42 73 58 48 41 7e 41 4b 42
       71.82391 34.202656 12.521594 50.813957
0002c0 41 04 57 41 b0 3a 63 42 5a 53 3a 42 8b 4c 9e 40
       13.438539 56.807312 46.581398 4.9468436
0002d0 84 cf 70 42 1d 71 ff 41 99 57 bd 40 d1 bc 0e 42
       60.202652 31.930231 5.916943 35.68439
0002e0 b7 c8 ec 41 23 93 ff 3f ec 2d 80 42 5c 53 3a 42
       29.598005 1.9966778 64.08969 46.581406
0002f0 3a 2c dc 40 17 3e 67 42 f9 27 8f 42 6e 14 e0 41
       6.8803988 57.810635 71.57807 28.009975
000300 b8 6d 95 42 d0 bc 7e 42 45 26 3f 40 ad ce 05 42
       74.714294 63.684387 2.9867108 33.45183
000310 74 58 54 42 8b 4c 9e 40 3f a9 11 42 72 47 a4 41
       53.08638 4.9468436 36.41528 20.534885
000320 93 c9 0b 42 22 38 98 42 88 3b 76 42 78 0e f3 41
       34.94685 76.109634 61.558136 30.382065
000330 60 e1 1f 42 41 04 57 41 9e c3 84 42 06 c7 02 42
       39.970093 13.438539 66.382065 32.69436
000340 5f 1a 93 42 d0 bc 0e 42 98 46 f9 41 02 a5 22 42
       73.551506 35.684387 31.15947 40.66114
000350 68 14 e0 41 03 c7 2a 42 05 c7 2a 42 32 f9 95 42
       28.009964 42.694347 42.694355 74.98671
000360 36 af 2a 41 69 14 e0 41 d3 28 44 42 c3 67 96 41
       10.667776 28.009966 49.039867 18.800665
000370 d1 bc 0e 42 ef d2 3c 42 82 63 8f 41 63 97 90 42
       35.68439 47.20599 17.923588 72.29568
000380 ca 2e 61 42 40 04 57 41 f8 cc 37 42 1b 05 98 42
       56.295692 13.438538 45.950165 76.00997
000390 34 0a 74 41 04 22 8e 42 00 a5 22 42 cf 61 25 42
       15.252491 71.06644 40.661133 41.345516
0003a0 dd b6 79 42 fa 16 1d 42 99 46 f9 41 56 e7 96 42
       62.428577 39.272438 31.159472 75.45183
0003b0 83 63 bf 41 33 0a 74 41 3b f3 6e 42 90 c9 0b 42
       23.92359 15.25249 59.73753 34.94684
0003c0 8a 4c 98 42 d0 17 28 42 b7 c8 ec 41 7e 41 4b 42
       76.14949 42.023254 29.598005 50.813957
0003d0 8f 5d 98 42 74 58 48 41 84 08 c6 41 4b ed 8b 42
       76.18273 12.521595 24.754158 69.96346
0003e0 62 e1 1f 42 5a 53 3a 42 3b e2 5a 42 de 22 95 42
       39.9701 46.581398 54.72093 74.5681
0003f0 85 cf 08 42 ff a4 22 42 53 20 98 42 ed d2 3c 42
       34.202656 40.66113 76.06313 47.205982

network_body.processors.0.normalizer.running_mean f4 [400]
000000 e6 9f 54 3f 00 00 00 00 b1 4b 23 3c ca e4 1f 3e
       0.83056486 0.0 0.009966777 0.1561462
000010 a0 d4 5e 3f b1 4b 23 3c b7 23 ee 3d 00 00 00 00
       0.8704319 0.009966777 0.11627906 0.0
000020 e6 55 67 3d 00 00 00 00 00 00 00 00 e8 b0 70 3f
       0.056478404 0.0 0.0 0.9401994
000030 13 77 44 3f b2 4b 23 3e b1 4b 23 3c 8a f1 74 3d
       0.7674419 0.15946844 0.009966777 0.059800662
000040 43 ba 59 3c 89 96 6b 3f 9f 1e 4c 3d 43 ba 59 3c
       0.013289037 0.92026573 0.04983389 0.013289037
000050 43 ba 59 3b 00 00 00 00 b8 23 6e 3f 96 46 81 3d
       0.0033222593 0.0 0.9302325 0.06312291
000060 43 ba 59 3b fe ee 63 3f 6f ec d2 3d 00 00 00 00
       0.0033222593 0.8903655 0.102990024 0.0
000070 00 00 00 00 e7 55 67 3f 43 ba d9 3c 68 14 88 3d
       0.0 0.9036545 0.026578074 0.06644517
000080 e6 fa 5d 3f 43 ba d9 3b fa 82 be 3c 9e 1e cc 3d
       0.86710966 0.0066445186 0.023255814 0.09966777
000090 00 00 00 00 00 00 00 00 e9 0b 7a 3f b1 4b a3 3c
       0.0 0.0 0.97674423 0.019933553
0000a0 ca 50 c5 3d 43 ba d9 3c 56 e7 30 3d e6 9f 54 3f
       0.0963455 0.026578074 0.04318937 0.83056486
0000b0 00 00 00 00 b1 4b 23 3c fd 93 5a 3f 69 14 08 3e
       0.0 0.009966777 0.8538206 0.13289036
0000c0 87 2a 46 3f 68 14 88 3c 6f ec 52 3e 00 00 00 00
       0.7740864 0.016611293 0.20598005 0.0
0000d0 b0 4b 23 3c 42 5f 50 3f 00 00 00 00 55 e7 30 3e
       0.009966776 0.8139535 0.0 0.17275746
0000e0 45 cb 75 3f 43 ba 59 3b 6a 14 88 3c 69 14 88 3c
       0.9601329 0.0033222593 0.016611297 0.016611295
0000f0 0d b0 15 3d 0e b0 95 3d 27 b5 b7 3d 9d 1e 4c 3f
       0.03654485 0.073089704 0.08970099 0.7973421
000100 9b b2 26 3e 58 9d 43 3f 9f 1e 4c 3d b1 4b a3 3c
       0.1627907 0.7641196 0.04983389 0.019933553
000110 43 ba 59 3c 45 ba d9 3c 12 88 e0 3d 88 e0 58 3f
       0.013289037 0.026578078 0.10963453 0.8471761
000120 f6 16 99 3e b2 4b a3 3c 00 00 00 00 6c 80 2d 3f
       0.2990033 0.019933555 0.0 0.6777408
000130 d0 61 61 3f 69 14 88 3c 00 00 00 00 9e 1e cc 3d
       0.88039875 0.016611295 0.0 0.09966777
000140 70 a2 65 3f 43 ba 59 3c 96 46 81 3d fa 82 be 3c
       0.89700985 0.013289037 0.06312291 0.023255814
000150 00 00 00 00 51 7b 0b 3e 69 14 88 3c ce 06 58 3f
       0.0 0.1362126 0.016611295 0.84385383
000160 cc 50 45 3e b1 4b 23 3c b6 b7 48 3f b1 4b 23 3c
       0.19269103 0.009966777 0.7840532 0.009966777
000170 b1 4b a3 3c e0 7d 1c 3e 8c f1 f4 3c e4 44 4b 3f
       0.019933553 0.15282393 0.029900335 0.79401994
000180 9f d4 5e 3f 0d b0 15 3d 43 ba 59 3c e1 7d 9c 3d
       0.87043184 0.03654485 0.013289037 0.07641197
000190 fa 82 be 3c 70 ec d2 3d 9f d4 5e 3f 00 00 00 00
       0.023255814 0.10299003 0.87043184 0.0
0001a0 e2 8e 38 3f 14 88 e0 3d e6 55 e7 3d 43 ba 59 3d
       0.7209302 0.10963455 0.11295681 0.05315615
0001b0 44 ba 59 3e e0 7d 1c 3e e9 55 e7 3d 81 ad 04 3f
       0.21262461 0.15282393 0.11295683 0.51827246
0001c0 52 20 02 3f 43 ba d9 3c 43 ba d9 3b 5c 09 e9 3e
       0.50830567 0.026578074 0.0066445186 0.45514953
0001d0 a0 79 55 3f b1 4b 23 3c 8c f1 f4 3c 5c bf fb 3d
       0.8338871 0.009966777 0.029900335 0.12292358
0001e0 40 a9 3d 3f 8a f1 f4 3d 9e 1e cc 3d 0e b0 15 3d
       0.7408638 0.119601324 0.09966777 0.036544852
0001f0 43 ba 59 3c ce bc 6a 3f 8c f1 f4 3c 0d b0 15 3d
       0.013289037 0.91694343 0.029900335 0.03654485
000200 55 31 1e 3f fa 82 be 3c b1 4b 23 3d 3d 98 a1 3e
       0.61794025 0.023255814 0.039867107 0.3156146
000210 e2 e9 41 3e 57 e7 30 3f 56 e7 30 3d 0e b0 95 3d
       0.18936875 0.69102997 0.04318937 0.073089704
000220 43 ba 59 3c b0 4b a3 3d 27 b5 b7 3d 42 5f 50 3f
       0.013289037 0.079734206 0.08970099 0.8139535
000230 97 46 81 3e 9b 0d 30 3f 69 14 88 3c b1 4b 23 3d
       0.25249168 0.6877076 0.016611295 0.039867107
000240 0e b0 95 3d 82 63 17 3f 51 7b 8b 3e 8c f1 74 3d
       0.073089704 0.5913621 0.2724252 0.05980067
000250 53 7b 0b 3f b8 23 ee 3d 3c e2 8e 3e e6 55 67 3d
       0.5448505 0.116279066 0.27906978 0.056478404
000260 df 7d 1c 3e af 95 90 3e f9 82 be 3c de c7 09 3f
       0.15282391 0.282392 0.023255812 0.538206
000270 80 ad 04 3e 43 ba d9 3b 96 46 81 3d 9d 1e 4c 3f
       0.1295681 0.0066445186 0.06312291 0.7973421
000280 0f b0 15 3d 0d fa 02 3f 2a 6b ca 3e 43 ba 59 3d
       0.036544856 0.511628 0.39534885 0.05315615
000290 fa 82 be 3c 12 77 44 3f e2 e9 41 3e 69 14 88 3c
       0.023255814 0.76744187 0.18936875 0.016611295
0002a0 c9 e4 9f 3e 44 ba d9 3c 57 e7 30 3d 99 57 1d 3f
       0.31229237 0.026578076 0.043189373 0.6146179
0002b0 10 0b 1f 3f 97 46 01 3e b1 4b 23 3d 5a 53 56 3e
       0.62126255 0.12624584 0.039867107 0.20930234
0002c0 56 e7 30 3d 29 10 41 3f fa 82 3e 3e 43 ba 59 3c
       0.04318937 0.75415283 0.18604651 0.013289037
0002d0 11 1c 3b 3f b8 23 ee 3d 69 14 88 3c 68 14 08 3e
       0.730897 0.116279066 0.016611295 0.13289034
0002e0 43 ba d9 3d 43 ba 59 3b 85 74 33 3f f9 82 3e 3e
       0.1063123 0.0033222593 0.7009967 0.1860465
0002f0 b1 4b a3 3c 97 46 81 3e c9 e4 1f 3f 9f 1e cc 3d
       0.019933553 0.25249168 0.62458473 0.09966778
000300 26 49 12 3f 84 63 97 3e 43 ba d9 3b 5c bf fb 3d
       0.57142866 0.29568112 0.0066445186 0.12292358
000310 3f 04 47 3f 43 ba 59 3c 51 7b 0b 3e 3c e2 8e 3d
       0.77740854 0.013289037 0.1362126 0.069767445
000320 82 ad 04 3e 8b f1 f4 3e 3c e2 8e 3e 14 88 e0 3d
       0.12956813 0.47840533 0.27906978 0.10963455
000330 e2 7d 1c 3e 55 e7 30 3d 27 5a 2e 3f 8c f1 f4 3d
       0.15282395 0.043189365 0.6810631 0.11960134
000340 3e 3d 18 3f 69 14 08 3e e3 55 e7 3d c9 e4 1f 3e
       0.5946845 0.13289036 0.112956785 0.15614618
000350 9f 1e cc 3d 83 19 2a 3e 83 19 2a 3e af 95 10 3f
       0.09966778 0.16611294 0.16611294 0.564784
000360 69 14 08 3d 9f 1e cc 3d 57 f8 4c 3f 97 46 81 3d
       0.03322259 0.09966778 0.80066437 0.06312292
000370 69 14 08 3e e4 e9 41 3e 8a f1 74 3d 9a 57 1d 3f
       0.13289036 0.18936878 0.059800662 0.61461794
000380 74 58 78 3e 54 e7 30 3d 12 1c 3b 3e b0 3a 07 3f
       0.24252492 0.04318936 0.18272427 0.52823925
000390 9e 1e 4c 3d 3e 98 21 3f c8 e4 1f 3e b3 4b 23 3e
       0.049833886 0.6312293 0.15614617 0.15946846
0003a0 25 49 92 3e f6 16 19 3e e6 55 e7 3d 72 a2 e5 3e
       0.2857143 0.14950165 0.11295681 0.44850498
0003b0 84 19 aa 3d 9f 1e 4c 3d cd f5 3b 3f 80 ad 04 3e
       0.08305648 0.04983389 0.7342194 0.1295681
0003c0 80 ad 04 3f 9c b2 26 3e 43 ba d9 3d 58 53 56 3e
       0.5182724 0.16279072 0.1063123 0.2093023
0003d0 c5 d3 03 3f b0 4b 23 3d 55 e7 b0 3d b2 01 b6 3e
       0.5149501 0.039867103 0.08637873 0.35548168
0003e0 e1 7d 1c 3e fa 82 3e 3e b7 23 6e 3e 44 ba d9 3e
       0.15282394 0.18604651 0.23255812 0.42524922
0003f0 96 46 01 3e c9 e4 1f 3e f3 60 06 3f e3 e9 41 3e
       0.12624583 0.15614618 0.5249168 0.18936877

network_body.processors.0.normalizer.running_variance f4 [400]
000000 6b 6f 2d 42 00 00 80 3f 1d 16 7e 40 00 a5 22 42
       43.358807 1.0 3.9700997 40.661133
000010 91 c9 0b 42 1d 16 7e 40 1c 71 ff 41 00 00 80 3f
       34.946842 3.9700997 31.93023 1.0
000020 a6 51 88 41 00 00 80 3f 00 00 80 3f 82 63 8f 41
       17.039867 1.0 1.0 17.923588
000030 3c e2 5a 42 d1 61 25 42 1d 16 7e 40 82 63 8f 41
       54.720932 41.345524 3.9700997 17.923588
000040 8b 4c 9e 40 e9 b0 b8 41 35 0a 74 41 8b 4c 9e 40
       4.9468436 23.086382 15.252492 4.9468436
000050 23 93 ff 3f 00 00 80 3f 72 47 a4 41 c1 67 96 41
       1.9966778 1.0 20.534885 18.800661
000060 23 93 ff 3f 74 0e f3 41 5c 75 e6 41 00 00 80 3f
       1.9966778 30.382057 28.807304 1.0
000070 00 00 80 3f d9 a5 d9 41 18 99 0c 41 69 5e 9d 41
       1.0 27.20598 8.787376 19.671099
000080 d0 bc 0e 42 45 26 3f 40 6c ca fa 40 68 14 e0 41
       35.684387 2.9867108 7.8372097 28.009964
000090 00 00 80 3f 00 00 80 3f 6d ca fa 40 3a 2c dc 40
       1.0 1.0 7.83721 6.8803988
0000a0 d7 a5 d9 41 19 99 0c 41 42 04 57 41 6b 6f 2d 42
       27.205976 8.787377 13.4385395 43.358807
0000b0 00 00 80 3f 1d 16 7e 40 bc 45 1a 42 cf bc 0e 42
       1.0 3.9700997 38.5681 35.684383
0000c0 2f 8d 56 42 9b 57 bd 40 be ea 48 42 00 00 80 3f
       53.637875 5.916944 50.22924 1.0
0000d0 1d 16 7e 40 5b 53 3a 42 00 00 80 3f 03 11 30 42
       3.9700997 46.5814 1.0 44.016613
0000e0 74 58 48 41 23 93 ff 3f 9a 57 bd 40 99 57 bd 40
       12.521595 1.9966778 5.9169436 5.916943
0000f0 6d 91 39 41 de 22 ab 41 e4 9f cc 41 2f 8d 46 42
       11.598004 21.392025 25.578072 49.637875
000100 d3 17 28 42 8a 02 5d 42 35 0a 74 41 3b 2c dc 40
       42.023266 55.25248 15.252492 6.880399
000110 8c 4c 9e 40 19 99 0c 41 75 0e f3 41 64 e1 1f 42
       4.946844 8.787377 30.38206 39.970108
000120 ee 2d 80 42 3a 2c dc 40 00 00 80 3f 53 7b 85 42
       64.08971 6.8803988 1.0 66.74087
000130 04 c7 02 42 9a 57 bd 40 00 00 80 3f 69 14 e0 41
       32.69435 5.9169436 1.0 28.009966
000140 5f 75 e6 41 8b 4c 9e 40 c2 67 96 41 6d ca fa 40
       28.80731 4.9468436 18.800663 7.83721
000150 00 00 80 3f 3f a9 11 42 9a 57 bd 40 ff a4 22 42
       1.0 36.41528 5.9169436 40.66113
000160 b1 4b 3f 42 1d 16 7e 40 94 da 4f 42 1e 16 7e 40
       47.823917 3.9700997 51.963455 3.9701
000170 39 2c dc 40 63 e1 1f 42 c2 b1 1b 41 bd ea 48 42
       6.8803983 39.970104 9.730898 50.229237
000180 92 c9 0b 42 6d 91 39 41 8b 4c 9e 40 b1 f0 b1 41
       34.946846 11.598004 4.9468436 22.242525
000190 6c ca fa 40 5b 75 e6 41 91 c9 0b 42 00 00 80 3f
       7.8372097 28.807302 34.946842 1.0
0001a0 85 3b 76 42 75 0e f3 41 96 46 f9 41 2d 32 81 41
       61.558125 30.38206 31.159466 16.1495
0001b0 72 91 4d 42 62 e1 1f 42 96 46 f9 41 8c 4c 98 42
       51.392036 39.9701 31.159466 76.149506
0001c0 5e 75 98 42 19 99 0c 41 45 26 3f 40 fe 49 97 42
       76.22923 8.787377 2.9867108 75.644516
0001d0 04 c7 2a 42 1d 16 7e 40 c3 b1 1b 41 ac ce 05 42
       42.69435 3.9700997 9.730899 33.451828
0001e0 46 26 6b 42 05 c7 02 42 69 14 e0 41 70 91 39 41
       58.787376 32.694355 28.009966 11.598007
0001f0 8c 4c 9e 40 80 63 bf 41 c1 b1 1b 41 6d 91 39 41
       4.946844 23.923584 9.730897 11.598004
000200 53 20 90 42 6a ca fa 40 72 58 48 41 81 08 84 42
       72.06313 7.8372087 12.521593 66.01661
000210 ee d2 3c 42 13 88 82 42 40 04 57 41 df 22 ab 41
       47.205986 65.26577 13.438538 21.392027
000220 8b 4c 9e 40 e8 b0 b8 41 e4 9f cc 41 5b 53 3a 42
       4.9468436 23.08638 25.578072 46.5814
000230 16 3e 67 42 fe 49 83 42 98 57 bd 40 73 58 48 41
       57.81063 65.644516 5.9169426 12.521594
000240 df 22 ab 41 9f 79 93 42 fe a4 72 42 81 63 8f 41
       21.392027 73.73754 60.661125 17.923586
000250 ff 49 97 42 21 71 ff 41 88 3b 76 42 a7 51 88 41
       75.64452 31.930239 61.558136 17.03987
000260 64 e1 1f 42 9a fc 77 42 6e ca fa 40 09 9f 97 42
       39.970108 61.99668 7.8372107 75.810616
000270 92 c9 0b 42 45 26 3f 40 c2 67 96 41 2e 8d 46 42
       34.946846 2.9867108 18.800663 49.63787
000280 6f 91 39 41 2b 6b 98 42 2e e8 91 42 2e 32 81 41
       11.598006 76.20931 72.953476 16.149502
000290 6c ca fa 40 3c e2 5a 42 ee d2 3c 42 99 57 bd 40
       7.8372097 54.720932 47.205986 5.916943
0002a0 fe 49 83 42 18 99 0c 41 41 04 57 41 63 97 90 42
       65.644516 8.787376 13.438539 72.29568
0002b0 d8 a5 8f 42 85 cf 08 42 73 58 48 41 7e 41 4b 42
       71.82391 34.202656 12.521594 50.813957
0002c0 41 04 57 41 b0 3a 63 42 5a 53 3a 42 8b 4c 9e 40
       13.438539 56.807312 46.581398 4.9468436
0002d0 84 cf 70 42 1d 71 ff 41 99 57 bd 40 d1 bc 0e 42
       60.202652 31.930231 5.916943 35.68439
0002e0 b7 c8 ec 41 23 93 ff 3f ec 2d 80 42 5c 53 3a 42
       29.598005 1.9966778 64.08969 46.581406
0002f0 3a 2c dc 40 17 3e 67 42 f9 27 8f 42 6e 14 e0 41
       6.8803988 57.810635 71.57807 28.009975
000300 b8 6d 95 42 d0 bc 7e 42 45 26 3f 40 ad ce 05 42
       74.714294 63.684387 2.9867108 33.45183
000310 74 58 54 42 8b 4c 9e 40 3f a9 11 42 72 47 a4 41
       53.08638 4.9468436 36.41528 20.534885
000320 93 c9 0b 42 22 38 98 42 88 3b 76 42 78 0e f3 41
       34.94685 76.109634 61.558136 30.382065
000330 60 e1 1f 42 41 04 57 41 9e c3 84 42 06 c7 02 42
       39.970093 13.438539 66.382065 32.69436
000340 5f 1a 93 42 d0 bc 0e 42 98 46 f9 41 02 a5 22 42
       73.551506 35.684387 31.15947 40.66114
000350 68 14 e0 41 03 c7 2a 42 05 c7 2a 42 32 f9 95 42
       28.009964 42.694347 42.694355 74.98671
000360 36 af 2a 41 69 14 e0 41 d3 28 44 42 c3 67 96 41
       10.667776 28.009966 49.039867 18.800665
000370 d1 bc 0e 42 ef d2 3c 42 82 63 8f 41 63 97 90 42
       35.68439 47.20599 17.923588 72.29568
000380 ca 2e 61 42 40 04 57 41 f8 cc 37 42 1b 05 98 42
       56.295692 13.438538 45.950165 76.00997
000390 34 0a 74 41 04 22 8e 42 00 a5 22 42 cf 61 25 42
       15.252491 71.06644 40.661133 41.345516
0003a0 dd b6 79 42 fa 16 1d 42 99 46 f9 41 56 e7 96 42
       62.428577 39.272438 31.159472 75.45183
0003b0 83 63 bf 41 33 0a 74 41 3b f3 6e 42 90 c9 0b 42
       23.92359 15.25249 59.73753 34.94684
0003c0 8a 4c 98 42 d0 17 28 42 b7 c8 ec 41 7e 41 4b 42
       76.14949 42.023254 29.598005 50.813957
0003d0 8f 5d 98 42 74 58 48 41 84 08 c6 41 4b ed 8b 42
       76.18273 12.521595 24.754158 69.96346
0003e0 62 e1 1f 42 5a 53 3a 42 3b e2 5a 42 de 22 95 42
       39.9701 46.581398 54.72093 74.5681
0003f0 85 cf 08 42 ff a4 22 42 53 20 98 42 ed d2 3c 42
       34.202656 40.66113 76.06313 47.205982

network_body._body_endoder.seq_layers.0.weight f4 [4, 401]
000000 ba 15 e1 3a 94 d8 f1 3c f2 b5 13 3d 75 e8 ae 3d
       0.0017172613 0.029522218 0.03606219 0.085404314
000010 5f 45 07 3d 5e d2 8b bc 51 88 25 3d 28 bc 0f bc
       0.03302514 -0.017068084 0.040413205 -0.008772887
000020 95 3b 1a 3d c1 57 f9 3b aa 82 c3 bd 70 4c 36 3d
       0.037654478 0.007609338 -0.095464066 0.04450649
000030 fe 71 d2 3c ae 90 74 bd 3e 75 02 3d d4 fc 84 bd
       0.025689121 -0.05970829 0.031850092 -0.06493536
000040 77 71 9c 3c 76 e0 56 bb d0 6b 1d 3e 66 6e 39 3c
       0.019097073 -0.0032787598 0.15373158 0.011317825
000050 ff 1a b3 3d f4 5e c6 3b de a8 35 bd c3 84 1b 3c
       0.087453835 0.0060537998 -0.044350497 0.009492102
000060 39 64 29 bb 02 b0 6d bc 9d 13 8e 3a 9a 31 1b 3c
       -0.002584709 -0.014507296 0.0010839585 0.009472275
000070 db 65 6e bc c3 f7 cb bc 18 0f 37 3d 60 d1 d6 3b
       -0.014550651 -0.024898415 0.04469213 0.006555721
000080 4d f9 b4 3c 81 d7 07 bd 68 ce 47 bc da 5d 7a 3d
       0.022091532 -0.033164505 -0.012195207 0.06112466
000090 03 33 04 3d 53 4d a6 bd a1 da 91 bd f3 74 d8 3d
       0.03227521 -0.08120217 -0.07121778 0.10569181
0000a0 48 3f 7a 3d e9 db ba 3d 90 fb d8 3c 38 75 98 3d
       0.061095506 0.09123976 0.026487142 0.07444233
0000b0 92 83 37 bd 98 cc 3a 3d 85 55 38 3d ed 8f bc bd
       -0.04480321 0.045605272 0.045003433 -0.09207139
0000c0 6b 73 48 bd ee 8f f3 3d 52 69 7c 3d 56 d3 fa bc
       -0.048938196 0.11892687 0.06162388 -0.030618351
0000d0 18 56 8d 3d f1 fc 25 3d 30 9d 8e bc ee 92 41 bd
       0.06901187 0.040524427 -0.017408937 -0.047259264
0000e0 03 b4 12 bd a4 c5 57 bd e2 23 55 bc 09 ce 22 3c
       -0.035816204 -0.05267872 -0.013009043 0.009936818
0000f0 db d4 ce bc a9 09 49 bb bd 84 75 bb 98 41 a0 bd
       -0.025247982 -0.0030675924 -0.0037463151 -0.07825011
000100 76 22 13 bd 9b 49 8b bb 41 ae 4d bc dd 5c 6d 3c
       -0.035921536 -0.004250718 -0.012553752 0.014487472
000110 4d c9 37 3c c6 03 1e 3c 05 d0 ca 3d d7 83 e4 bd
       0.011217427 0.009644454 0.09902958 -0.11157959
000120 2a 82 f1 3d 31 66 e0 bc b1 a4 39 bd 16 75 17 bd
       0.11792405 -0.027392479 -0.045323078 -0.036976896
000130 c9 57 51 3d 85 b4 2a 3d 5e 9f c9 3d 09 16 06 3d
       0.05110911 0.041676063 0.0984485 0.032735858
000140 bc 80 c9 3b 68 4d 88 3c 19 f5 ff bb 97 55 f6 3c
       0.0061493795 0.016638473 -0.0078112003 0.03007011
000150 45 7f 7e 3b f0 be 00 3d e4 12 0f 3d 34 8a 63 3d
       0.0038833183 0.031432092 0.034930125 0.055551723
000160 4a ab 0a 3d 95 54 fb bc 74 4d a3 3b 8f 55 0e 3d
       0.03385476 -0.03067998 0.0049835984 0.034749564
000170 90 84 37 bd 6a 5b df 3d 9a 3d 6a bc 69 78 f3 3b
       -0.044804156 0.10906108 -0.0142969135 0.0074301255
000180 9f 10 ba bd b9 e3 75 3b 51 0b 1a 3d 86 00 fb bc
       -0.090852015 0.0037519766 0.03760845 -0.030639898
000190 2e 81 8d bd e9 46 97 3d b3 8f d5 3c 47 3c 35 bc
       -0.06909405 0.07386572 0.026069498 -0.0110617345
0001a0 ef ab 82 3b 17 bd ef ba 4e 63 23 bd cb da e5 3c
       0.0039877812 -0.0018290606 -0.039889626 0.02805843
0001b0 10 0f 21 bd aa 19 b0 bc f3 34 5d 3c 41 1f 5c bc
       -0.039321005 -0.021496613 0.013501394 -0.013435186
0001c0 14 95 bd bc b9 6c 1e bd 41 00 11 3d 1a 90 55 bc
       -0.023142375 -0.038677905 0.035400633 -0.013034845
0001d0 d8 1a f9 3d 7d e9 3e bd 7a 79 92 bd 2f 8a 66 bc
       0.12163323 -0.04660939 -0.07152076 -0.0140710315
0001e0 c0 a9 b3 3d 81 ea 29 bc 01 a1 79 bc 1c fa 1f bd
       0.087726116 -0.0103708515 -0.01523614 -0.039056882
0001f0 80 07 b5 3d f5 0a 3c bd 44 4c aa bd 83 e8 b6 bc
       0.08839321 -0.045908887 -0.08315328 -0.022327667
000200 93 0f c3 bd db 90 10 3c c1 7f 9a bb f0 0f 38 bc
       -0.09524455 0.008823599 -0.0047149365 -0.011234269
000210 fe eb 2b 3d 00 c5 78 3d 4f 70 2f 3d 82 62 38 bc
       0.041973107 0.06073475 0.042831715 -0.011253955
000220 76 fb cd 3d 72 f5 18 bd 0a 8c 7e bc 35 68 29 3c
       0.10057728 -0.03734345 -0.015536318 0.010339786
000230 07 a3 1e bd e1 e9 8a bd 17 a7 e1 bd eb 9d 1f 3d
       -0.038729694 -0.0678289 -0.11018198 0.03896896
000240 a0 66 fa b9 72 2a 82 3d 70 e6 f8 3c fc 84 1a 3b
       -0.00047760177 0.06355752 0.030383319 0.00235778
000250 37 91 59 bd 62 81 2f bc ab ee 85 3c f1 8a 83 bd
       -0.053117003 -0.010712 0.016349157 -0.06422985
000260 d9 2e 82 bd 92 77 10 bd da a1 54 3d ce 8c c1 bb
       -0.06356592 -0.03527028 0.051912166 -0.005906678
000270 e5 f6 c8 bd 4b 05 31 3d b3 5d ab bc b2 dd 84 3d
       -0.098127164 0.04321794 -0.020918703 0.064875975
000280 ed 61 7b 3b 54 d0 9c bc 0d 47 62 3c 45 2a e4 bc
       0.003835793 -0.019142307 0.013810885 -0.027852187
000290 ee 34 cd bc 37 e5 6c 3d 73 63 b0 bd 6f b0 32 3d
       -0.025049653 0.057835784 -0.086127184 0.04362529
0002a0 56 74 04 be 76 99 0a bd 44 40 e2 3d fd de f1 3c
       -0.12935004 -0.033837758 0.11047414 0.029525274
0002b0 c8 e4 cd bc 91 12 4c bd 75 24 9b bc 3f c4 2f bd
       -0.025133505 -0.049822394 -0.018938283 -0.042911764
0002c0 6e 9b 7a 3d 61 87 4d 3d c0 96 ad bc e7 bd cc 3c
       0.061183386 0.050177936 -0.021190047 0.024992896
0002d0 bd f3 a0 3c fb f3 ed bc ad 0b 52 bd 17 15 92 3d
       0.019647473 -0.029047003 -0.051280666 0.07132929
0002e0 dc 94 21 3d 99 2e 43 bc 2c 0a 84 3a 37 9c 97 bc
       0.039448604 -0.011912965 0.0010073832 -0.018507106
0002f0 06 4e 99 3b c8 f7 f6 3b 02 4e 8c bd 6f 69 75 bd
       0.0046784906 0.007536862 -0.06850816 -0.059915002
000300 be 64 9a bc f3 10 bc ba 0f 6b 44 3d b7 f9 f3 3b
       -0.018846866 -0.0014348313 0.04795366 0.00744554
000310 50 3d 12 b9 ac 1c c6 bd bd cd 2b 3c f3 ee 52 bd
       -0.00013946486 -0.096734375 0.010486064 -0.05149741
000320 11 78 ac bc 49 d1 07 3e 2b bf 47 be 3b b9 16 bc
       -0.021053346 0.1326343 -0.19506519 -0.009199436
000330 f9 f7 1f 3d 15 ae 26 3d c9 df 97 bc 4f 3b 7e bc
       0.039054845 0.04069336 -0.018539326 -0.01551707
000340 68 9f 89 bc aa f6 59 bc 22 39 36 3e 3e 00 e8 3c
       -0.016799644 -0.013303438 0.17795232 0.028320428
000350 a2 4a d7 ba 8c c4 88 bc da 01 7a 3c db 2b 86 ba
       -0.001642544 -0.016695283 0.0152592305 -0.0010236459
000360 52 64 16 3d 0f 6f 6c 3d 93 e5 57 bd bd e1 7e 3d
       0.036716767 0.0577231 -0.052709173 0.062227
000370 0f b5 02 3d 35 aa 08 bd fb 2d 31 3c 08 b8 ea 3c
       0.031910952 -0.033365447 0.010814185 0.028652206
000380 1b 3d c7 bd be 9f 88 bb 4a 10 55 bc 95 b6 80 3d
       -0.09728452 -0.0041694334 -0.013004372 0.06284825
000390 59 8d a1 bc 7c 0d bf bd 92 23 0a 3d 1d 11 a5 3c
       -0.01972072 -0.09328744 0.03372533 0.020149762
0003a0 39 f3 f9 3c c8 37 bc 3c 78 14 52 ba 3b 87 9f 3d
       0.030511485 0.022975817 -0.00080139143 0.07789465
0003b0 49 2b 35 3c c1 3b bb bc 71 bb 94 bc 39 ae fa bd
       0.011057683 -0.022855641 -0.018155785 -0.122402616
0003c0 f8 6a 97 bc a2 2a 99 3b 9f b7 94 bc bf c3 91 bc
       -0.018483624 0.0046742717 -0.018153964 -0.017793534
0003d0 dc 3d 0e be 97 f3 35 bd 6f c8 ec 3d 13 6e 3a bd
       -0.13890785 -0.04442176 0.11561667 -0.04551513
0003e0 07 cd 5f bd 4d 1e db bc 98 1d d0 bd 4f ef 18 3c
       -0.05463889 -0.026747847 -0.101618946 0.009334399
0003f0 f6 42 04 3c 46 21 fd bc dd 0d 9f 3c d4 eb b7 bc
       0.008072605 -0.030899655 0.01941579 -0.022451319

network_body._body_endoder.seq_layers.0.bias f4 [4]
000000 b5 4f bc 39 be df 96 3b 5f 8c b5 bb 5d 5a af bb
       0.0003591754 0.004604309 -0.005540415 -0.0053513483

action_model._discrete_distribution.branches.0.weight f4 [180, 4]
000000 67 11 76 bd 55 87 7c 3a a7 46 1f bd e5 3c 19 3d
       -0.06007519 0.0009633203 -0.03888574 0.03741159
000010 ad 85 fd 3c 1d 3e 9a bd b1 49 c7 bd 50 57 09 b8
       0.03094753 -0.075313784 -0.097308524 -3.274466e-05
000020 e0 8b 7f bd 96 a1 a7 bc bd 34 37 3d 26 23 d9 bc
       -0.062389255 -0.020462792 0.04472803 -0.026506018
000030 46 41 9f 3d 6f c5 aa 3d 71 a1 a8 bd 55 81 55 3d
       0.07776122 0.08338439 -0.082339175 0.052125294
000040 d5 a9 ac 3d b4 d9 50 3c 1a 20 7b bc 0f 22 03 3d
       0.084308304 0.012747217 -0.015327478 0.032014903
000050 46 f3 8a 3c a9 ed 86 bc f3 c9 66 3c 83 49 4b 3d
       0.016961705 -0.016470747 0.014086234 0.049630653
000060 1c 9e 1a 3d ce 47 3c bd c8 d3 26 3d 7e 60 4c 3d
       0.03774844 -0.045966916 0.040729314 0.04989671
000070 2a 68 08 bd 12 32 60 3c b0 f4 90 3c c6 7f 05 3b
       -0.033302464 0.013683813 0.017694801 0.0020370348
000080 25 a3 e7 3b 2b 5f 4f 3d e0 d4 b5 bc a1 1f b5 3d
       0.007069009 0.05062787 -0.022196233 0.08843923
000090 b6 f0 66 3d 35 c2 6f b9 cc ec 7e 3c 32 59 b9 3d
       0.056381904 -0.00022865164 0.015559386 0.09050216
0000a0 b5 fb e2 3a 1c 3c 34 3d d3 ce d9 bd 86 85 24 3d
       0.0017317446 0.044002637 -0.10635152 0.0401664
0000b0 fd bd 92 bc e9 55 04 bc 3d af af bd 70 1c 18 3d
       -0.01791286 -0.008077123 -0.08578346 0.037136495
0000c0 c6 8d 07 bd c3 7a d6 bc a4 fe 53 3d 18 71 fc 3b
       -0.03309419 -0.026181584 0.051756516 0.0077039115
0000d0 7e 43 8f 3d 39 0e 3f bd a2 dd 2d 3d ef 68 78 3d
       0.06995295 -0.046644423 0.042447694 0.060646947
0000e0 a6 46 54 bd f4 09 93 3c eb df de bc 9b 33 8a bc
       -0.051825188 0.017949082 -0.027206382 -0.01687031
0000f0 64 cc 8c 3d 3c 06 b3 3c eb 53 51 3d 92 d0 0f 3c
       0.06874922 0.021853559 0.05110542 0.008777754
000100 7e 1b 9a bd fd 6d b4 bd 95 b1 31 bd 18 e3 30 3d
       -0.07524775 -0.08810041 -0.043382246 0.043185323
000110 13 c0 4f bd 75 79 14 bc ff 5d d0 3b 61 33 2d bc
       -0.050720286 -0.009062161 0.0063588615 -0.010571332
000120 b3 6d e9 bc cb cb e1 bc 78 32 c3 bc ee a4 0a 3d
       -0.028494691 -0.027562996 -0.023827776 0.033848695
000130 62 d8 88 3d d9 1d f8 3c 5a 7e d8 bc 5a 1e 72 bb
       0.06681897 0.03028767 -0.026427437 -0.003694436
000140 4d 42 32 bc 09 85 9e bd ac 40 e6 3c 93 96 8a bb
       -0.010880065 -0.07740218 0.02810701 -0.0042293756
000150 87 f3 d4 3c f9 71 a0 bd 5b c5 e7 bc 2b 21 1f 3d
       0.02599503 -0.078342386 -0.028292349 0.03884999
000160 96 6a d9 bc 7e 3a 17 3d c8 8f 6f ba 12 e5 07 3d
       -0.026540082 0.036921017 -0.00091385515 0.033177443
000170 ac e5 85 bd df bd 6e 3c 20 15 fc bb 89 47 af 3d
       -0.06537947 0.014571636 -0.007692948 0.08558566
000180 9f 0e ab 3d 44 c1 11 bd fa 6a cc 3d 91 9e 94 3c
       0.08352398 -0.035584703 0.09981342 0.018142017
000190 f5 d0 4b 3d 8b a1 e6 bc 4b f5 b2 bc 72 2e 99 3d
       0.049759824 -0.028153202 -0.02184548 0.07479562
0001a0 dc fd d3 3c 22 73 92 3d 07 f9 93 3d 59 d0 14 3c
       0.025877886 0.07150866 0.072252326 0.009082877
0001b0 94 6e b2 bb b4 3b ee 3c 84 61 dc 3c 3a d9 af 3b
       -0.005445311 0.029081203 0.026901968 0.0053664716
0001c0 a6 bf 69 3c a6 b7 40 bd 47 b4 8d 3d 94 00 dd 3c
       0.014266884 -0.04705014 0.06919151 0.026977815
0001d0 b8 3e 8d 3d f1 cf 32 3c b4 c6 59 3d a4 e8 82 bc
       0.06896728 0.010913835 0.053168014 -0.015980072
0001e0 14 92 eb 39 5b b5 3e bc 2b 27 51 3b 9e 77 22 3d
       0.0004493153 -0.011639918 0.0031914215 0.039664857
0001f0 00 cf 45 bc eb 64 ae 3b 6f be db bc d0 76 57 3d
       -0.012073278 0.005322089 -0.026824204 0.052603543
000200 01 5b c1 3d 2a 70 6a 3d 3a 06 a6 3d cf 36 e0 bc
       0.09441186 0.057235874 0.081066564 -0.027369885
000210 bd 8a 4e bd a6 67 bf bc 9f d2 97 bd ad 9c 26 3d
       -0.05042528 -0.023364853 -0.0741322 0.04067676
000220 f4 b5 3c 3c fc e3 29 bc 44 3d 80 bc e2 0e c3 3c
       0.01151799 -0.010369297 -0.015654214 0.023810808
000230 51 26 49 bc f1 14 a4 3d 2f 8e 7f bd 56 69 6b 3d
       -0.012277202 0.08011807 -0.062391456 0.057473503
000240 f5 61 50 3c 88 02 d9 3c dc c8 01 3e 8a 38 d8 3c
       0.012718667 0.026490465 0.12674278 0.026394147
000250 ba 05 e6 3c 52 24 6b 3d 52 6f c0 bc a2 5c 00 bd
       0.028078903 0.057407685 -0.023490582 -0.03133834
000260 53 16 58 bc ad 0f bf bc 7d a1 b0 bb ba cc d6 3c
       -0.013188916 -0.023322904 -0.0053903447 0.026220668
000270 b9 e7 2b 3d 3b 21 ac 3c c2 01 41 bd 58 4d 16 3b
       0.041969035 0.02101194 -0.047120817 0.0022934284
000280 ee 88 c1 3c 58 f3 b7 3b c2 4d 6a 3d 6b 9a 09 be
       0.023624863 0.0056137256 0.057203062 -0.13437812
000290 b5 cd 8d 3d bf 24 99 3c f1 06 f0 bc 7a e3 b6 3c
       0.06924001 0.01869428 -0.029300185 0.022325266
0002a0 06 2b b1 3d 8a ac 9c bc 6a 28 27 3d 5a 3c 1e bd
       0.08650784 -0.019125242 0.040810026 -0.038631774
0002b0 f2 32 f5 bc 6c 86 46 bd 99 5b d3 bc 45 7f 55 3c
       -0.02993152 -0.04846804 -0.025800513 0.013030832
0002c0 57 b5 b3 3c 8d 50 66 3c c6 7b 97 bc b3 8f d3 3c
       0.021937056 0.014057291 -0.018491637 0.025825357
0002d0 cf f5 3f bd 9f b5 2b 3d 89 4b 40 bc 9a 26 10 3b
       -0.04686528 0.041921254 -0.011736759 0.0021995665
0002e0 e4 5a 43 3d 00 55 b0 3d ca 36 ec bc 1f 81 ac 3b
       0.047694102 0.086099625 -0.02883472 0.005264416
0002f0 30 7f a4 3c bf b2 39 3d db 48 de 3d ce 86 96 bd
       0.020080179 0.04533648 0.1085374 -0.07349931
000300 cc 1c f3 bc a3 3d c2 3d 46 10 c3 ba ca 0a 21 bd
       -0.029676817 0.094844125 -0.0014882169 -0.03931693
000310 b0 c7 21 3d f9 6b 30 bc 7e 99 56 bd 82 99 b4 bc
       0.039497077 -0.01076793 -0.052392475 -0.022045854
000320 bd 6b e6 3c e3 36 8f 3c 8e 1d 3c bd ff 29 bc bd
       0.028127545 0.017482227 -0.045926623 -0.091876976
000330 5a 29 a8 bc fe 00 31 3c a3 94 28 bd 26 ad 19 3d
       -0.02052753 0.010803459 -0.041157376 0.037518643
000340 ab 07 92 bc a0 ff f7 3c 2d 7b 7c 3d aa e5 80 3d
       -0.017825922 0.030273259 0.061640907 0.06293805
000350 24 4b 6c 3d 8a 26 97 3d e8 e6 26 3c 86 d1 ed 3c
       0.057688847 0.073803976 0.010186888 0.029030573
000360 55 26 8f 3c 1e 78 84 3d bb 10 aa bd 7c ee ef 3c
       0.017474333 0.06468223 -0.08303972 0.029288523
000370 cf e4 f3 bd 4e b4 99 bc 8b b2 f0 bc 7b 66 8c 3d
       -0.11908876 -0.018762734 -0.02938201 0.06855484
000380 a5 f7 ae bd 30 80 da b9 73 1b 43 3d 59 51 32 3b
       -0.08543328 -0.00041675707 0.0476336 0.0027209132
000390 52 e7 97 3d 75 e2 c9 bb 22 8f 74 3d cf 26 a1 bc
       0.07417168 -0.006161029 0.059706815 -0.019671826
0003a0 e2 0e 4c bc 14 0a 05 bc 6e 80 c0 bb 6a 55 fc bc
       -0.01245472 -0.008120079 -0.005874685 -0.030802447
0003b0 f5 8d dd bd 51 07 85 3d 87 8e 76 bc e7 0f d4 bd
       -0.10818092 0.06495536 -0.01504863 -0.10354596
0003c0 3a 9f 46 bd b1 cb fc 3d 90 74 ea 3b 37 d9 b7 3d
       -0.048491694 0.123435386 0.0071550086 0.08976977
0003d0 95 7a b0 3c af ec 4a 3d d4 4b 5c bd 53 1d 73 bb
       0.021542827 0.049542125 -0.053783253 -0.0037096336
0003e0 cb da 88 3d eb fd e5 bc 07 b3 20 3d 38 3c 6c 3c
       0.066823564 -0.02807518 0.039233234 0.014418654
0003f0 27 54 a0 3c e2 f2 14 3d 5b 1a bb 3d 41 22 83 bd
       0.019571377 0.036364444 0.09135886 -0.06403018

action_model._discrete_distribution.branches.0.bias f4 [180]
000000 00 00 00 00 a4 e0 b3 3a 9c 81 91 bb 63 d1 1e bb
       0.0 0.0013723564 -0.0044404995 -0.002423369
000010 14 9e 23 3a f4 c8 01 ba 96 b9 80 3b 81 77 32 bb
       0.0006241512 -0.0004950904 0.0039283736 -0.0027231874
000020 cd 71 15 3b b4 a1 e2 3b b9 31 17 3c 44 d3 ef bb
       0.0022803426 0.006916249 0.009228163 -0.007318886
000030 d5 e4 ba 3b 2b 79 13 3c 56 e8 ce 3b a3 5e ed 3b
       0.0057035484 0.009001057 0.0063143177 0.0072439476
000040 33 74 72 3b 6c c1 97 bb fb 90 1e 3c c4 04 73 3b
       0.003699553 -0.004631212 0.009678121 0.0037081698
000050 d3 05 ed 3b 32 ab 25 3c e0 5d 0f 3c e2 09 88 3a
       0.0072333603 0.010111617 0.008750409 0.0010378922
000060 5d 4f fd 3a a0 fd 00 3b 23 b3 e3 3b b6 c5 37 bc
       0.001932602 0.0019682422 0.006948845 -0.011216572
000070 08 f7 07 bb eb 93 03 ba 3a b8 18 3b c6 75 b0 ba
       -0.0020746607 -0.0005019295 0.0023303167 -0.0013462834
000080 69 50 27 3c 83 3e 0d 3c a0 1f 87 ba 47 77 f0 ba
       0.010212042 0.008620861 -0.0010309108 -0.0018346094
000090 04 66 0c 3c 12 e2 b4 3b 34 fb 31 ba 52 58 c9 3a
       0.008569244 0.0055201137 -0.00067894463 0.0015361405
0000a0 4b 01 2c 3c 77 36 82 bb ec 80 11 3c ff aa 60 3b
       0.010498355 -0.003973778 0.008880835 0.003428161
0000b0 27 32 ff 3b 41 78 b4 bb 76 5b 10 3c c3 4b ad bb
       0.007787961 -0.0055074994 0.0088108685 -0.0052885725
0000c0 ba cb 3c 3a ff 74 21 bb 58 5f fa 3b 8e 63 88 3b
       0.00072019885 -0.0024636385 0.0076407604 0.0041622585
0000d0 71 24 65 bb e6 99 a2 ba 0b 86 1f 3c fe 9a e3 bb
       -0.0034964348 -0.0012405484 0.009736548 -0.0069459667
0000e0 6b d1 d0 bb 61 ec 96 3b a0 1d 6d 3b 21 77 94 39
       -0.006372621 0.0046058153 0.0036180988 0.00028317518
0000f0 89 79 96 3b 58 09 14 ba 55 d1 ef 3a bc 1a 36 3c
       0.004592125 -0.0005647144 0.0018296639 0.011114772
000100 c0 e0 81 bb c2 0b 26 b8 99 a2 12 bb f1 0c aa 3a
       -0.00396356 -3.9588434e-05 -0.0022374748 0.0012973828
000110 36 45 16 3c bb c7 97 3b 96 f0 93 3b be 6e e0 bb
       0.009171775 0.004631964 0.004514764 -0.006849139
000120 84 d3 29 3c 66 88 30 bb 76 d3 cc 3b cb bd 21 bb
       0.010365371 -0.0026936769 0.006250794 -0.0024679776
000130 f8 20 7b 3a 93 80 ee ba 46 37 08 bb f9 90 1f bb
       0.0009579803 -0.0018196277 -0.0020784899 -0.0024347885
000140 84 9c 93 bb df a9 ff 3b 1a 80 d7 3b b7 d3 e1 3b
       -0.004504742 0.0078022326 0.00657655 0.0068916935
000150 26 d4 3c bc 08 2a ad 3b 35 c5 0e bc 5c 37 4f 3a
       -0.0115251895 0.0052845515 -0.00871401 0.00079046725
000160 95 cf 52 3b f9 ad 67 ba d7 11 0b bb 63 90 19 3c
       0.0032167186 -0.00088378746 -0.002122035 0.009372803
000170 7e b9 c4 b9 7c 22 58 bb f3 49 bc 3b fa 48 99 38
       -0.00037522236 -0.0032979539 0.00574612 7.3092015e-05
000180 86 ad f3 3b 4f ac 08 3c 8a b4 0a 39 3d 92 a5 3a
       0.007436457 0.008341863 0.00013227962 0.0012632083
000190 00 00 00 00 5a a4 0e 3c 37 8a d6 3b b4 70 c3 3b
       0.0 0.008706177 0.006547238 0.005964363
0001a0 d2 0e 15 bb a6 f6 ab 3b 45 15 30 bb d3 cf b3 bb
       -0.002274443 0.0052479086 -0.0026868146 -0.005487421
0001b0 0d 63 9c bb 14 47 03 3b b5 e7 88 3b 06 1e 46 3b
       -0.00477255 0.002003138 0.0041780123 0.0030230298
0001c0 94 9b 40 3c d0 19 45 3c 69 65 32 3c 4f 9e e9 ba
       0.011755843 0.01203008 0.010888436 -0.0017823669
0001d0 75 ba d3 bb 82 9a e0 3b 46 4b eb ba 04 4f fd 3b
       -0.0064614364 0.0068543563 -0.001795151 0.0077303667
0001e0 0d 03 f7 3b c6 25 e5 3b 8c 1e d7 ba d5 e5 3f 3c
       0.0075382055 0.0069930283 -0.0016412302 0.011712511
0001f0 2a 47 dc bb 9e 1a 36 bb 84 20 c6 ba 50 18 c6 bb
       -0.0067223506 -0.0027786861 -0.0015115892 -0.0060453787
000200 84 e2 e5 3b 88 92 01 bc 23 b5 00 3c 92 c7 a3 3b
       0.007015528 -0.007908471 0.007855686 0.004998156
000210 c4 5d 5a 3b 59 5a 17 3c 41 e4 81 bb f9 bc 8a 3b
       0.0033320049 0.009237849 -0.0039639776 0.004233953
000220 58 51 0e 3c b0 f3 95 3b 88 01 93 3b 45 d1 c6 3a
       0.008686386 0.004576169 0.0044862665 0.0015168568
000230 41 20 2a bb 3b 51 0e 3c 7d 83 08 3a 38 ea b9 ba
       -0.0025959166 0.008686359 0.00052075816 -0.0014184183
000240 6b 7b f1 ba 64 21 47 3b f7 67 27 3c 23 26 29 3c
       -0.0018423622 0.0030384893 0.010217658 0.010324034
000250 ed 05 d9 ba 6d f0 b4 3b b3 3e 9b bb c5 0c e0 3b
       -0.0016557552 0.005521825 -0.004737699 0.0068374597
000260 46 c2 35 3b 9d 59 12 bb 29 8a d9 3b 91 a8 e0 3a
       0.0027734204 -0.0022331246 0.0066387844 0.001714008
000270 71 31 80 bb 87 60 8e 3b b6 01 42 3b 50 ed 81 bb
       -0.003912144 0.004345003 0.002960307 -0.0039650574
000280 1f 66 ff 3b 34 33 ff 3b 9b 4d 17 3c 99 41 19 3c
       0.007794156 0.0077880863 0.009234811 0.009354019
000290 eb b4 0e bb 41 16 a6 3b e7 67 2c 3c 5d a4 8a 3b
       -0.0021775316 0.005068571 0.010522819 0.0042310194
0002a0 e8 19 21 bc 1f 03 03 ba cb db c9 3b 75 23 c4 3a
       -0.009832837 -0.00049977185 0.0061602346 0.001496418
0002b0 0d 9e ba bb cf 7f ca ba c4 74 8e 3b 7e 4d ac 3b
       -0.0056951107 -0.0015449467 0.0043474156 0.005258261
0002c0 73 38 dd 3b af 89 87 bb 5d 97 d2 ba 3a a4 2d bb
       0.006751114 -0.004136286 -0.0016066838 -0.0026495592

action_model._discrete_distribution.branches.1.weight f4 [1, 4]
000000 50 ae ea 3c 83 ac 96 3d bd 1e aa 3c 0c 05 13 3a
       0.028647572 0.07357123 0.02076661 0.0005608357
